…
_transfer_learning_even_odd]: 
********************
[2021-12-05 17:54:28,877: INFO: 02_transfer_learning_even_odd]: >>>>> stage Transfer Learning started <<<<<
[2021-12-05 17:54:28,879: INFO: common]: yaml file: configs/config.yaml loaded successfully
[2021-12-05 17:54:29,561: INFO: 02_transfer_learning_even_odd]: Loaded base model summary: 
Model: "sequential"
_________________________________________________________________
 Layer (type)                Output Shape              Param #   
=================================================================
 InputLayer (Flatten)        (None, 784)               0         
                                                                 
 HiddenLayer1 (Dense)        (None, 300)               235500    
                                                                 
 leaky_re_lu (LeakyReLU)     (None, 300)               0         
                                                                 
 HiddenLayer2 (Dense)        (None, 100)               30100     
                                                                 
 leaky_re_lu_1 (LeakyReLU)   (None, 100)               0         
                                                                 
 OutputLayer (Dense)         (None, 10)                1010      
                                                                 
=================================================================
Total params: 266,610
Trainable params: 266,610
Non-trainable params: 0
_________________________________________________________________

[2021-12-05 17:54:29,597: INFO: 02_transfer_learning_even_odd]: Transfer Learning model summary: 
Model: "sequential"
_________________________________________________________________
 Layer (type)                Output Shape              Param #   
=================================================================
 InputLayer (Flatten)        (None, 784)               0         
                                                                 
 HiddenLayer1 (Dense)        (None, 300)               235500    
                                                                 
 leaky_re_lu (LeakyReLU)     (None, 300)               0         
                                                                 
 HiddenLayer2 (Dense)        (None, 100)               30100     
                                                                 
 leaky_re_lu_1 (LeakyReLU)   (None, 100)               0         
                                                                 
 Outputlayer (Dense)         (None, 2)                 202       
                                                                 
=================================================================
Total params: 265,802
Trainable params: 202
Non-trainable params: 265,600
_________________________________________________________________

[2021-12-05 17:55:07,884: INFO: 02_transfer_learning_even_odd]: base model is saved at artifacts\models\even_odd_model.h5
…
